notes/Autoregressive/pretrained/charrnn_model.pt (torch, 868930 bytes, 12 tensors)

rnn.weight_ih_l0 f4 [512, 2]
0	0x3db034ed	0.08603845
1	0x3e8fa910	0.28058672
2	0x3e047b25	0.12937601
3	0xbd9069a7	-0.070514016
4	0x3e09516a	0.13409963
5	0x3dbc3e58	0.091915786
6	0x3d908683	0.07056906
7	0x3d6a586b	0.05721323
8	0xbbd053d6	-0.0063576503
9	0xbdd1d5e3	-0.10245874
10	0x3c12a23e	0.008949814
11	0xbc88d557	-0.01670329
12	0x3e0a1b7a	0.13487044
13	0x3eb16639	0.34648302
14	0x3e219d2d	0.15782614
15	0x3e3ce2ba	0.18445864
16	0x3d786a21	0.060648087
17	0x3e10dc33	0.141465
18	0x3ca16c31	0.01970491
19	0x3dc89d8f	0.09795677
20	0xba78368e	-0.00094685785
21	0x3ccba236	0.024857622
22	0xbd16bee3	-0.036803138
23	0xbded020f	-0.11572658
24	0x3d47e608	0.04880336
25	0x3ef268c0	0.47345543
26	0x3c729564	0.014806125
27	0xbe4de78a	-0.20107856
28	0xbd401659	-0.046896312
29	0x3e5c7986	0.21530733
30	0x3d6d8d95	0.05799635
31	0x3dd09f59	0.10186643
32	0xbd7f9d7f	-0.06240606
33	0x3e9851a5	0.2974979
34	0x3e1584a2	0.14601377
35	0xbe22a6b0	-0.15883899
36	0xbb4950f9	-0.003071843
37	0x3d29e35a	0.041476585
38	0x3e006a5b	0.12540571
39	0xbc808f2c	-0.01569327
40	0x3d964ac1	0.07338477
41	0xbd8908ea	-0.06691153
42	0xbbd37d21	-0.0064541255
43	0xbd933c71	-0.07189263
44	0xbca7e655	-0.020495573
45	0x3c9e8ab1	0.019353243
46	0x3dc42d1f	0.09578919
47	0x3e0a6262	0.13514093
48	0xbb734ff1	-0.0037126506
49	0x3d2bdc0f	0.04195791
50	0x3cd7d382	0.026345972
51	0x3d548c81	0.051891807
52	0x3d431d80	0.047635555
53	0x3e64dd22	0.2234998
54	0xbd9ff100	-0.07809639
55	0xbd39cec0	-0.045363188
56	0x3e08f853	0.13375978
57	0x3e474698	0.19460523
58	0x3dadf1cc	0.08493385
59	0x3e7dd2cd	0.24787445
60	0x3cba8fac	0.022773586
61	0xbbfb6904	-0.007672431
62	0xbcb39759	-0.021922754
63	0x3e5a8c69	0.21342625
64	0xbbe6ec51	-0.007047214
65	0x3d1c33d9	0.038135383
66	0x3c90365c	0.017604046
67	0xbd01c87c	-0.031685337
68	0x3d63d400	0.0556221
69	0x3d2dc8c5	0.042427797
70	0x3c9a7b12	0.018857513
71	0x3e16a851	0.14712645
72	0x3db1af26	0.08675985
73	0x3d6ad6d9	0.0573338
74	0xbb96da4e	-0.0046036607
75	0x3ec1fe00	0.378891
76	0xbd940bef	-0.07228839
77	0x3f03b66f	0.51450247
78	0x3dd9a3d2	0.10626949
79	0x3c66107e	0.014042018
80	0x3d0f3533	0.034962844
81	0xbb7255cd	-0.003697741
82	0x3c10131d	0.008793619
83	0xbe162296	-0.14661631
84	0xbdb2aaed	-0.08724008
85	0xbd3000ae	-0.0429694
86	0xbdaf33a9	-0.08554775
87	0x3e8258df	0.25458428
88	0xbdaed92a	-0.085375145
89	0x3de6024e	0.11230908
90	0x3e2d3c71	0.16917588
91	0x3d0bc23e	0.03412079
92	0xbd8689dc	-0.06569263
93	0x3e3fc498	0.18727338
94	0xbc20c902	-0.009813549
95	0xbdae007b	-0.084961854
96	0xbc5544a2	-0.013016852
97	0x3e84cfba	0.25939733
98	0xbba86e1c	-0.005140079
99	0xbe4e32fe	-0.2013664
100	0xbd68de52	-0.056852646
101	0xbc673570	-0.014111862
102	0xbcb50dda	-0.022101332
103	0x3dbc757d	0.092020966
104	0x3cdc20dd	0.02687114
105	0x3c197e7e	0.009368537
106	0xbacaadc0	-0.0015463158
107	0x3e2cd403	0.16877751
108	0x3d0c602c	0.034271404
109	0xbd4aac38	-0.049480647
110	0xbd597f35	-0.05309983
111	0x3d120724	0.03565134
112	0xbe026cd7	-0.12736832
113	0x3cdb93a7	0.026803805
114	0x3c17b601	0.009259702
115	0x3e300861	0.17190696
116	0xbd1b8643	-0.03796984
117	0xbe0bb9ea	-0.1364514
118	0xbcb8386a	-0.022487838
119	0xbadd54d6	-0.0016886245
120	0x3dd3948f	0.1033107
121	0xbdebfd90	-0.115229726
122	0xbddd37b2	-0.10801639
123	0x3e30c94a	0.17264286
124	0x3dec88d2	0.11549534
125	0x3ee36ffe	0.4442138
126	0x3d18682e	0.03720873
127	0x3bd6a161	0.0065499996
128	0x3cbf26f6	0.023334008
129	0x3e0ff1fa	0.1405715
130	0x3dc1b1c3	0.094577335
131	0x3e85c185	0.26124206
132	0xbc8e7da5	-0.017393896
133	0xbb22ca84	-0.0024839947
134	0x3d8ce852	0.06880249
135	0xbd140932	-0.03614158
136	0xbcf73f54	-0.030181564
137	0x3d44492b	0.04792134
138	0xbc3dc051	-0.011581496
139	0xbdcbe137	-0.09955066
140	0xbda26f76	-0.07931416
141	0x3de6c021	0.112671144
142	0xbdfacceb	-0.12246116
143	0x3e9616af	0.2931418
144	0x3e00e417	0.1258701
145	0x3df0e825	0.11763028
146	0x3cb32166	0.021866512
147	0xbda81a56	-0.08208148
148	0xbd8da770	-0.06916702
149	0x3cc538db	0.024074962
150	0x3cca9663	0.024729913
151	0x3d2da11e	0.04238998
152	0x3bcdfaf8	0.0062860213
153	0xbd05d94f	-0.032677945
154	0x3e8d88d8	0.27643466
155	0x3d5bbf91	0.05364949
156	0xbd058010	-0.032592833
157	0xba4d9892	-0.0007842864
158	0x3d8d4dbe	0.06899594
159	0xbda2292e	-0.07918011
160	0x3d378202	0.04480172
161	0x3ded6219	0.11590976
162	0x3ddb11bd	0.10696743
163	0xba28b96b	-0.0006436321
164	0xbd491801	-0.049095158
165	0x3b98bc7d	0.0046611414
166	0xbd23f96d	-0.040032793
167	0x3e1a7e1e	0.15087172
168	0x3cc57a03	0.024106031
169	0x3e2b0f9d	0.16705175
170	0xbd097df4	-0.033567384
171	0x3d133742	0.03594137
172	0x3e53242b	0.20619266
173	0xbd460863	-0.048347842
174	0x3c380859	0.011232459
175	0xbce48733	-0.0278965
176	0x3da7c608	0.08192068
177	0xbde1ee88	-0.11031824
178	0x3e15b928	0.14621413
179	0x3f324287	0.6963276
180	0x3d87d32d	0.066320755
181	0x3da92442	0.08258869
182	0x3c28a440	0.0102930665
183	0x3d3898b5	0.045067508
184	0x3d35a0e3	0.044342887
185	0x3d2d80fa	0.04235933
186	0x3d4bbdc8	0.049741536
187	0x3d4c0cb3	0.0498168
188	0x3d8da217	0.06915682
189	0xbde29d14	-0.110651165
190	0xbc9cff13	-0.019164598
191	0xbdd6a9f6	-0.10481636
192	0x3d855050	0.06509459
193	0x3d6bfdcc	0.057615086
194	0xbdbd3c69	-0.09240038
195	0xbc6211ed	-0.013798219
196	0xbd2631b4	-0.040574744
197	0x3d9fbafc	0.07799336
198	0x3d9f9dea	0.077937916
199	0xbcf85ec6	-0.030318629
200	0x3e13bfdb	0.14428656
201	0x3f1605a4	0.58602357
202	0xbd853604	-0.06504443
203	0x3da0c384	0.07849792
204	0x3dbeeb75	0.093222536
205	0xbda57e45	-0.080807246
206	0x3dc01310	0.09378636
207	0x3e0b4a28	0.13602507
208	0xbcbf6c97	-0.02336721
209	0x3e28e45e	0.16493365
210	0xbd046dfd	-0.032331455
211	0x3de66325	0.11249379
212	0x3cbecab0	0.023290008
213	0x3d9924f8	0.07477754
214	0x3d3b16ba	0.04567597
215	0x3e1f8d02	0.15581134
216	0xbde10eac	-0.109891266
217	0x3e2ac537	0.16676794
218	0x3d16d5a0	0.036824822
219	0x3e02bfea	0.12768522
220	0x3dbcd26e	0.09219824
221	0x3e542183	0.20715909
222	0x3db163b3	0.08661594
223	0xbe1f2771	-0.1554239
224	0xbc766eb2	-0.01504104
225	0xbc100e1c	-0.008792426
226	0x3d89b215	0.067234196
227	0xbc673b55	-0.014113267
228	0x3d474eb3	0.048659038
229	0xbca608e0	-0.020267904
230	0x3dd1ebb7	0.10250037
231	0x3c9905b5	0.01867948
232	0x3dd3446c	0.10315785
233	0x3d5e9dd4	0.054349735
234	0x3ba302ea	0.0049747126
235	0x3d95e54e	0.07319127
236	0xbe5f092e	-0.21780846
237	0x3e6fcd27	0.23418103
238	0xbcad6421	-0.02116591
239	0xbd2f4fdc	-0.04280077
240	0xbba465e7	-0.0050170305
241	0xbcb9a382	-0.022660974
242	0x3cae5bb9	0.021283971
243	0xbdda9d66	-0.106745526
244	0x3d97cf55	0.07412592
245	0xbd9f1ed1	-0.0776955
246	0x3df5d7b6	0.12004034
247	0x3e0f66dc	0.14004081
248	0xbd3f90eb	-0.046769064
249	0xbcb7135b	-0.022348097
250	0x3dd4cc5f	0.10390543
251	0xbbf66365	-0.007519173
252	0xbd8337bd	-0.064071156
253	0x3e1255a3	0.1429048
254	0x3a8e2115	0.00108436
255	0x3d3ec6e1	0.046576384

rnn.weight_hh_l0 f4 [512, 128]
0	0xbcac6a52	-0.021046791
1	0x3e426689	0.18984427
2	0xbdc4a928	-0.096025765
3	0xbd6ad014	-0.057327345
4	0x3df07b80	0.11742306
5	0x3d2ba255	0.04190286
6	0xbdcbe231	-0.09955252
7	0xbe1c1501	-0.15242387
8	0xbe679333	-0.22614746
9	0x3dabb8e6	0.08384876
10	0x3e3c3c47	0.18382369
11	0x3e2dae47	0.16961013
12	0x3d4128ea	0.04715816
13	0xbe11156d	-0.1416833
14	0x3d8338e3	0.06407335
15	0xbe0d338c	-0.13789195
16	0xbd5a6826	-0.05332198
17	0xbe2a5d12	-0.16637066
18	0x3e4b3be7	0.1984707
19	0x3d0ead32	0.03483314
20	0xbde43ae8	-0.11144048
21	0x3e4c262d	0.19936438
22	0xbda2a3b1	-0.07941378
23	0xbe7d2351	-0.24720503
24	0xbe58325c	-0.2111296
25	0xbd0db792	-0.034598894
26	0x3e496f5b	0.19671385
27	0x3dd0bfc8	0.10192829
28	0x3d443efd	0.047911633
29	0xbefef5a3	-0.4979678
30	0xbd3740a5	-0.044739384
31	0x3d2b3887	0.041801956
32	0x3cb3373f	0.02187693
33	0xbe1d5dfd	-0.15367885
34	0x3ce0f382	0.027459864
35	0x3e30a027	0.17248593
36	0xbe36a922	-0.17837957
37	0x3d87023c	0.06592223
38	0x3e2380fd	0.15967174
39	0x3ddcef48	0.10787827
40	0xbe11b706	-0.14229974
41	0xbe4c1f56	-0.19933829
42	0x3e0e0bc8	0.13871682
43	0x3e4a3f9a	0.19750825
44	0xbb1cb485	-0.002391131
45	0x3ed991a5	0.4249393
46	0x3e738a68	0.23783267
47	0xbe6ebe55	-0.23314793
48	0xbe89422d	-0.268083
49	0x3e2d7405	0.16938789
50	0x3de25472	0.11051263
51	0x3dd6ad6f	0.104822986
52	0xbe5afead	-0.21386214
53	0xbd7eba2d	-0.06218927
54	0x3e5a5c1f	0.21324204
55	0x3e13b5e3	0.14424853
56	0x3e875496	0.2643172
57	0xbd1a6591	-0.037694518
58	0xbda999b4	-0.0828127
59	0x3e0ee4e3	0.13954501
60	0xbe2e1852	-0.17001465
61	0xbd597232	-0.05308742
62	0x3e8deba4	0.27718842
63	0x3cc84ca0	0.0244506
64	0x3cb06160	0.021530807
65	0x3e0485ce	0.12941667
66	0x3d92db57	0.07170742
67	0x3e3a200c	0.18176287
68	0xbe5f19ea	-0.21787229
69	0x3da61a5f	0.08110499
70	0xbe39f5c1	-0.18160154
71	0xbc8bf7b8	-0.017085895
72	0x3e8bfb53	0.27340183
73	0x3d6ce7c8	0.05783823
74	0xbdb0b2e3	-0.0862787
75	0xbe265652	-0.16243866
76	0xbe573422	-0.21015981
77	0xbe3851ff	-0.18000029
78	0x3d4cae00	0.049970627
79	0x3e128662	0.14309075
80	0x3de9fc39	0.11425061
81	0xbc6ae66a	-0.014337162
82	0x3d29d80a	0.041465797
83	0x3e41d994	0.18930656
84	0xbc772296	-0.0150839295
85	0xbe27d321	-0.16389133
86	0x3e740698	0.2383064
87	0x3dbe9997	0.09306639
88	0x3e4891d3	0.19586878
89	0xbd21d22b	-0.039507072
90	0xbe8e88cb	-0.2783874
91	0x3c8e9421	0.017404618
92	0x3e0da1b2	0.13831213
93	0x3e0fbe6e	0.14037487
94	0x3e05ae36	0.13054737
95	0xbe29e208	-0.1659013
96	0x3bf07f85	0.0073394203
97	0xbe0264fe	-0.12733838
98	0xbe0b5c48	-0.13609421
99	0x3d9bd995	0.0760986
100	0xbe721dba	-0.23644152
101	0x3e1a82d0	0.15088964
102	0x3d83c88b	0.06434735
103	0x3e0a7832	0.13522413
104	0xbe09e242	-0.13465217
105	0xbd4da7a1	-0.05020869
106	0xbda313a6	-0.07962732
107	0xbe9491f3	-0.290176
108	0x3e4f8d4b	0.20268743
109	0xbdf51a22	-0.11967875
110	0xbeb56eae	-0.35436004
111	0xbdab5a7f	-0.0836687
112	0xbdf0791a	-0.11741848
113	0xbe298ab7	-0.16556822
114	0xbe3a82e0	-0.18213987
115	0x3e582425	0.21107538
116	0x3e575529	0.2102858
117	0xbd0e8c0a	-0.03480152
118	0x3e5c2a7f	0.21500586
119	0x3c300750	0.010743931
120	0x3dc80dde	0.0976827
121	0x3e4b9327	0.19880353
122	0xbcc2398f	-0.023709087
123	0xbe1916c5	-0.14950092
124	0xbe0ea56e	-0.13930294
125	0x3e1526fc	0.14565653
126	0x3e860181	0.26173022
127	0x3eaef8e1	0.34174255
128	0x3e856b9b	0.2605866
129	0xbe686405	-0.22694404
130	0xbebcdb64	-0.36886132
131	0xbdf3fca9	-0.119134255
132	0x3bafa560	0.0053602904
133	0xbcf16277	-0.029465897
134	0x3ed5bf73	0.41747627
135	0x3e568a7f	0.2095127
136	0x3ed461fb	0.41481003
137	0x3dc1335f	0.094336264
138	0x3dff3288	0.1246081
139	0x3cfdca7d	0.030980343
140	0xbf1c5a01	-0.61074835
141	0x3df4813b	0.11938711
142	0x3eaf1f6f	0.3420367
143	0xbe45c6f9	-0.19314183
144	0xbf134d55	-0.57539874
145	0x3d8e7a83	0.06956961
146	0x3e424293	0.18970709
147	0xbe970698	-0.29497218
148	0xbc95caf7	-0.018285258
149	0x3e01288e	0.12613127
150	0x3ddb8063	0.10717847
151	0xbe6361b4	-0.2220524
152	0xbe4526ed	-0.1925313
153	0x3d79ee4c	0.061018273
154	0x3e7f9450	0.2495892
155	0x3c8fd9fa	0.017559994
156	0xbebfd18e	-0.37464565
157	0x3e7bc231	0.24585797
158	0xbe13ad51	-0.14421584
159	0x3e33bdff	0.17552947
160	0x3dbad502	0.09122659
161	0xbdf8a3aa	-0.121405914
162	0xbba1712f	-0.0049268226
163	0x3e8f04fb	0.27933487
164	0xbe1cf848	-0.15329087
165	0xbeac1b17	-0.33614418
166	0x3f013914	0.5047772
167	0xbe5981d2	-0.21240929
168	0xbd813fff	-0.063110344
169	0xbda33d32	-0.079706565
170	0xbd516739	-0.05112383
171	0x3ec1faa4	0.37886536
172	0x3d6cea1d	0.057840455
173	0xbe51aecf	-0.2047684
174	0x3e0b3f7e	0.13598439
175	0xbddaac1a	-0.10677357
176	0xbe33b09e	-0.17547843
177	0xbe3ed305	-0.18635185
178	0x3d828da1	0.0637467
179	0xbda5b2c6	-0.08090739
180	0xbe5b282d	-0.21402045
181	0xbe6706c3	-0.22561173
182	0x3da6b9eb	0.0814093
183	0xbbb2d6d9	-0.0054577407
184	0x3db21cf4	0.086969286
185	0x3e0658da	0.13119832
186	0xbe15eabd	-0.14640327
187	0xbe23db92	-0.16001728
188	0x3b96fc45	0.0046077096
189	0xbe02f1bb	-0.12787525
190	0xbec0bcf1	-0.3764415
191	0xbd8da7d5	-0.06916777
192	0x3e1b7656	0.1518186
193	0xbec9fff3	-0.39453086
194	0xbd9b341e	-0.075783
195	0x3c2d0a20	0.010561496
196	0xbcc27a6f	-0.023740022
197	0x3b923927	0.0044623795
198	0xbea3322d	-0.3187422
199	0x3d3551db	0.044267517
200	0x3dcac2c8	0.09900433
201	0xbd8f9990	-0.070117116
202	0x3e175692	0.14779118
203	0xbd0827c4	-0.03324105
204	0xbdec2628	-0.11530715
205	0x3ef1eff3	0.4725338
206	0xbd882c14	-0.06649032
207	0x3d5a8ef1	0.053358976
208	0x3d90f14d	0.070772745
209	0xbce0718c	-0.027397893
210	0xbcc77f30	-0.02435264
211	0x3e0608e0	0.13089323
212	0x3c34f20b	0.011044036
213	0xbdc4dbc1	-0.09612227
214	0xbed5c60b	-0.41752657
215	0xbd16223a	-0.036653735
216	0x3dbfec74	0.09371272
217	0x3f178dd8	0.5920081
218	0xbe863502	-0.26212317
219	0xbe09065e	-0.13381335
220	0x3d67f897	0.056633558
221	0x3e07ce27	0.13262235
222	0x3d81e99c	0.063433856
223	0x3bcde3a8	0.0062832423
224	0xbd83f81a	-0.06443806
225	0xbd50be58	-0.050962776
226	0xbe59f113	-0.21283369
227	0xbce4b39f	-0.027917681
228	0x3ec3c1d6	0.38233823
229	0x3e0c9fbb	0.13732807
230	0x3d8dd331	0.06925047
231	0x3e055995	0.13022454
232	0xbc946288	-0.01811339
233	0xbde15804	-0.11003116
234	0x3c2b0a4c	0.010439467
235	0x3e4aa756	0.19790396
236	0x3d56e5a0	0.05246508
237	0xbcc4a850	-0.024006039
238	0x3e9d6d98	0.30747676
239	0xbc5c3930	-0.013441369
240	0x383f80ae	4.565779e-05
241	0x3c2bf520	0.010495454
242	0xbd75def5	-0.06002708
243	0x3db849e2	0.08998467
244	0x3dda699c	0.10664675
245	0x3cd1dca3	0.025617903
246	0x3ee63464	0.44961846
247	0x3ceb2bb2	0.028707359
248	0x3c438ebc	0.011935886
249	0x3dca6dd6	0.09884231
250	0xbdb75988	-0.089526236
251	0xbdb0c605	-0.08631519
252	0xbd9bec70	-0.07613456
253	0xbdaa2025	-0.08306912
254	0x3e07e62e	0.132714
255	0xbd06af4d	-0.032882024

rnn.bias_ih_l0 f4 [512]
0	0x3e739c7d	0.23790164
1	0x3de54fd4	0.11196867
2	0x3e5214b9	0.20515718
3	0x3d7f4505	0.06232168
4	0xbc10f74e	-0.0088480245
5	0x3d982071	0.07428063
6	0x3db2c7f0	0.08729541
7	0x3e2542c1	0.16138746
8	0x3e0b1f9f	0.13586281
9	0xbb1f3812	-0.0024294895
10	0x3db25fdb	0.08709689
11	0xbda91a61	-0.082569845
12	0x3eec5158	0.4615581
13	0x3cd13ed6	0.025542658
14	0x3ccb43cb	0.0248126
15	0x3d8513bf	0.06497907
16	0x3e5480f0	0.20752311
17	0x3dc278ab	0.09495672
18	0x3d0b0522	0.033940442
19	0xbc01174e	-0.007879091
20	0xbd2cc118	-0.042176336
21	0x3daf9b05	0.085744895
22	0xbd987247	-0.07443672
23	0x3df83234	0.121189505
24	0x3d031007	0.031997707
25	0xbc1078e1	-0.008817882
26	0x3d822e2f	0.06356465
27	0xbd8f1da3	-0.06988075
28	0x3e162d3e	0.14665696
29	0x3e17166b	0.14754646
30	0xbca7a70b	-0.020465394
31	0xbdbb528b	-0.09146603
32	0x3b1b4b8c	0.0023696152
33	0xbd3aa5f3	-0.045568418
34	0x3d84e883	0.064896606
35	0x3d308056	0.04309114
36	0x3e047e09	0.12938704
37	0x3c84fcb0	0.016233772
38	0x3e0b4e05	0.13603981
39	0x3dd3847a	0.10328002
40	0x3d9bb82a	0.07603486
41	0x3cce5196	0.025185388
42	0xbb8c6cdd	-0.0042854385
43	0x3d1a1070	0.037613332
44	0x3d860a9c	0.06544992
45	0x3e47afa5	0.19500597
46	0x3dc0130e	0.093786344
47	0x3dba52b8	0.090978086
48	0x3e4980e9	0.19678082
49	0xbd1cca5c	-0.038278922
50	0x3dac9c3a	0.08428235
51	0xbd363cf0	-0.04449171
52	0x3dec45d7	0.115367584
53	0x3e006bab	0.12541072
54	0xbd9242c2	-0.07141639
55	0x3994d290	0.0002838564
56	0x3db9a563	0.09064748
57	0x3dcca9bd	0.099933125
58	0x3c86f91b	0.016476205
59	0xbb971986	-0.004611197
60	0x3d8e94e9	0.06961996
61	0x3db98414	0.09058395
62	0x3ec9b0ce	0.39392704
63	0x3da01cc2	0.07817985
64	0x3d872e8c	0.06600675
65	0x3e8fe76c	0.28106248
66	0x3d6dafa2	0.058028825
67	0xbcf66a47	-0.030079974
68	0xbc0cef9a	-0.008602047
69	0x3c5f0026	0.013610875
70	0x3da7ff35	0.08202974
71	0xbbf3b885	-0.007437768
72	0xbb38d1e0	-0.0028201267
73	0x3c46abb6	0.0121259
74	0x3d1501ac	0.036378548
75	0xbd615355	-0.055011112
76	0xbd4bdcd6	-0.049771152
77	0x3e57d3e1	0.21076919
78	0xbd24e17e	-0.04025411
79	0x3d7cee2c	0.061750576
80	0xba7bcfb7	-0.0009605842
81	0x3d798b56	0.060923897
82	0x3cb280c0	0.021789908
83	0x3c903a53	0.017605936
84	0x3d394fa3	0.045241963
85	0xbd47a5da	-0.048742153
86	0x3e840562	0.25785357
87	0xbd1af27b	-0.037828904
88	0xbda9f850	-0.08299315
89	0x3f16844c	0.5879562
90	0x3d866112	0.065614834
91	0xbc296b6a	-0.010340551
92	0xbd1e8249	-0.03869847
93	0x3cba706c	0.022758685
94	0xbd928340	-0.0715394
95	0x3d4894a5	0.048969883
96	0xbd897ed2	-0.06713642
97	0xbda9ee5d	-0.08297417
98	0x3d440594	0.047856882
99	0xbda303a4	-0.07959679
100	0x3eda58e9	0.42645958
101	0x3df45107	0.11929517
102	0xbd041aae	-0.032252006
103	0x3df64b88	0.12026125
104	0xbd41d74d	-0.047324467
105	0x3daacbca	0.08339651
106	0x3d29552d	0.041340996
107	0x3e1f8fac	0.1558215
108	0xbd97c094	-0.07409778
109	0x3e0832e7	0.13300668
110	0x3ea16a4e	0.31526417
111	0x3d1c74dc	0.038197383
112	0x3d045060	0.032303214
113	0x3c89f082	0.016838316
114	0x3cd82ffe	0.026390072
115	0x3d09bdc4	0.03362824
116	0x3db64be7	0.08901196
117	0xbd6bca86	-0.05756619
118	0x3e53a1b0	0.20667148
119	0xbd8ff04d	-0.070282556
120	0xbbcef4ad	-0.0063157887
121	0xbca17147	-0.019707335
122	0xbd8acbba	-0.06777139
123	0x3cefd378	0.02927564
124	0x3ccbaf10	0.02486375
125	0x3d928b74	0.07155505
126	0x3d31dd05	0.04342367
127	0x3c6e2640	0.014535487
128	0xbb245333	-0.0025074005
129	0xbde34ade	-0.11098264
130	0xbd95fb0c	-0.07323274
131	0x3bba765c	0.005690379
132	0x3d7f26dd	0.062292922
133	0xbd8e41a3	-0.06946113
134	0xbdbe00f8	-0.092775285
135	0xbcf4bb98	-0.029874608
136	0xbe173536	-0.14766392
137	0x3d3b74e5	0.045765776
138	0xbd652b05	-0.05594923
139	0x39d24879	0.00040108318
140	0xbe3690d7	-0.1782869
141	0xbcb71228	-0.022347525
142	0xbd014f79	-0.03156993
143	0x3d821c54	0.063530594
144	0x3ca34044	0.019928105
145	0x3d98e7aa	0.074660614
146	0xbce0afd0	-0.027427584
147	0xbd824406	-0.06360631
148	0x3912296a	0.00013939073
149	0x3d671b61	0.056422595
150	0xbcf009f2	-0.029301617
151	0xbd8d6944	-0.069048434
152	0x3c0ac7c3	0.0084704785
153	0x3d7b00b7	0.06127998
154	0x3ce666a3	0.028125113
155	0x3d6e38b0	0.05815953
156	0xbd10c02c	-0.03533952
157	0x3d14ae8f	0.036299285
158	0xbda3af24	-0.0799239
159	0xbd45d5f9	-0.048299763
160	0xbd69b9bc	-0.057061896
161	0x3cb50938	0.022099122
162	0x3cea8e86	0.028632414
163	0xbd59f6fa	-0.05321405
164	0xbd83bf3f	-0.06432962
165	0xbd393d00	-0.04522419
166	0x3db1fc8b	0.08690747
167	0xbd18c5d5	-0.037298042
168	0x3c4b356b	0.012402873
169	0x3d894a69	0.06703646
170	0x3d1a8e6e	0.037733488
171	0x3c93e4c1	0.018053414
172	0xbc2d4da8	-0.010577597
173	0xbd576536	-0.052586757
174	0xbd420432	-0.047367282
175	0x3d2a8cec	0.0416383
176	0x3d948d03	0.07253458
177	0x3d835f03	0.064146064
178	0xbd03df92	-0.032195635
179	0xbcb363e4	-0.021898217
180	0xbd87ae9b	-0.066251
181	0xb9d40ad0	-0.00040443847
182	0xbd86c5bc	-0.065806836
183	0xbc64e6ed	-0.013971073
184	0xbc3e4855	-0.011613925
185	0xbba80cf4	-0.0051284973
186	0x3d30efdc	0.043197498
187	0x3deac4fa	0.114633515
188	0x3d76822b	0.06018273
189	0xbd40f90d	-0.047112513
190	0x3b5bdc70	0.003354814
191	0xbcaf42bd	-0.021394128
192	0x3d01af30	0.031661212
193	0xbe098fde	-0.13433787
194	0x3c86fad7	0.016477032
195	0xbd575f97	-0.052581396
196	0x3d97b4e0	0.07407546
197	0x3d5bd90e	0.053673796
198	0x3d9444c0	0.072396755
199	0x3ce7b824	0.028286047
200	0xbd2c6ec8	-0.042097837
201	0x3c60f907	0.013731248
202	0x3d92b424	0.07163265
203	0x3cddd60c	0.027079605
204	0x3b82dc00	0.003993511
205	0xbd7f6046	-0.062347673
206	0xbbdbc97d	-0.006707369
207	0xbd59d119	-0.053177927
208	0xbd6a8b9b	-0.057262044
209	0x3c5f1048	0.013614722
210	0xba9e61f6	-0.0012083638
211	0xbd9217ff	-0.07133483
212	0x3da61c64	0.08110884
213	0xbdb26bf5	-0.087119974
214	0xbe31abf0	-0.17350745
215	0xbc1e4186	-0.009659177
216	0x3bfc469d	0.0076988474
217	0xbe9b4e9c	-0.30333412
218	0x3cf853c1	0.030313374
219	0xbc3021b5	-0.010750224
220	0x3cf382e5	0.029725501
221	0x3db2aa05	0.08723835
222	0xbd283226	-0.04106345
223	0x3c9ae03c	0.018905751
224	0x3bdeebcc	0.0068030115
225	0x3d380051	0.044922177
226	0x3d3e9542	0.046529062
227	0x3db936d8	0.09043664
228	0xbe325f4c	-0.17419165
229	0x3d9aa93f	0.075518124
230	0x3b014a97	0.0019728297
231	0x3a961b27	0.0011452184
232	0xbbd9ae9b	-0.006643129
233	0xbd82c258	-0.063847244
234	0xbd84658f	-0.06464683
235	0xbd1acb99	-0.037791822
236	0x3d5372ac	0.05162303
237	0x3e015e47	0.1263362
238	0x3d1afc2e	0.037838154
239	0x3dbe091d	0.09279082
240	0x3d030c51	0.031994168
241	0xbd0b1b5a	-0.03396163
242	0xbd979ce3	-0.07402971
243	0x3d027bea	0.031856455
244	0x3d0e13c7	0.03468683
245	0xbd68e2be	-0.056856863
246	0xbc619e94	-0.013770718
247	0x3dc3b3a7	0.0955575
248	0x3d05b087	0.032639053
249	0x3d018f20	0.031630635
250	0x3d110ace	0.035410695
251	0xbd5af784	-0.053458706
252	0x3ce991f9	0.028511988
253	0x3cd0a186	0.025467645
254	0xbc366290	-0.011131898
255	0xbd6af459	-0.057361934

rnn.bias_hh_l0 f4 [512]
0	0x3e81cc1f	0.25351045
1	0x3db7bc68	0.089714825
2	0x3e543bdd	0.20725961
3	0xbc6be681	-0.014398218
4	0x3db03445	0.086037196
5	0xbca14b5a	-0.01968925
6	0x3dbe248a	0.09284313
7	0x3e597e12	0.21239498
8	0x3e20ae1a	0.15691414
9	0xbd5fd088	-0.05464223
10	0xbd41429f	-0.047182675
11	0x3d2ba105	0.041901607
12	0x3ec7b989	0.3900874
13	0x3d33c403	0.043888103
14	0x3cf1a3f2	0.02949712
15	0xbc76a347	-0.015053577
16	0x3dd2fa7d	0.10301683
17	0x3d0646e7	0.03278246
18	0x3e031c23	0.12803702
19	0x3d9b62cc	0.075872034
20	0xbd7ea06c	-0.06216471
21	0xbd3590a5	-0.044327397
22	0xbd9b955b	-0.07596847
23	0x3e0e090f	0.13870643
24	0x3d896edf	0.067106
25	0xbd4efadb	-0.050532203
26	0x3db2840f	0.087165944
27	0xbd77535a	-0.060382225
28	0x3de4d127	0.11172705
29	0x3e152353	0.14564256
30	0xbdb97e3a	-0.09057279
31	0xbda3da48	-0.08000618
32	0x3dda13fc	0.10648343
33	0x3dadad5b	0.084803306
34	0x3d5cae2a	0.053877033
35	0x3d96825b	0.07349082
36	0x3baaf800	0.005217552
37	0x3d200cbb	0.03907464
38	0x3d71ba8a	0.05901579
39	0x3d5fd533	0.054646682
40	0x3d8bddb4	0.06829396
41	0xbbe74777	-0.00705808
42	0xbd90bf8d	-0.070677854
43	0x3cffaa26	0.031209063
44	0x3c809841	0.0156976
45	0x3de54d43	0.11196377
46	0x3e14f02e	0.14544746
47	0x3cb61b67	0.022229863
48	0x3d8bd62b	0.06827959
49	0x3dcc8ac7	0.09987407
50	0x3db53468	0.08847886
51	0xbd648302	-0.055789
52	0x3d93b1b5	0.07211629
53	0x3df5c114	0.11999717
54	0xbc42686c	-0.011865716
55	0xbb0a6b46	-0.002112107
56	0x3c0d6422	0.008629831
57	0xbd319477	-0.043354478
58	0x3d5c331f	0.05375969
59	0x3d5ed1b7	0.05439922
60	0x3d038330	0.032107532
61	0xbcae9be8	-0.021314576
62	0x3e892a7e	0.2679023
63	0x3db57ad7	0.088613205
64	0xbcd37759	-0.025813745
65	0x3e154f97	0.14581142
66	0xbba6ed94	-0.0050942395
67	0xbd1a7d2d	-0.037717033
68	0x3d647fd6	0.055785976
69	0xbba65f95	-0.0050773122
70	0x3c8ec2f6	0.017426949
71	0x3a3b971c	0.0007156001
72	0x3e097864	0.13424832
73	0x3d1273f4	0.035755113
74	0x3ccac003	0.024749761
75	0xbd64d570	-0.055867612
76	0xbccaf295	-0.024773875
77	0x3e90dc3d	0.28293028
78	0x3d8b63e4	0.06806162
79	0x3daab107	0.083345465
80	0x3cd086b0	0.025454849
81	0xbd5f3c10	-0.05450064
82	0x3d922068	0.07135087
83	0xbc96d6d5	-0.018412987
84	0xbd187f2a	-0.037230648
85	0xbbc80dca	-0.0061051594
86	0x3e0686d2	0.13137367
87	0xba84d3e2	-0.0010133947
88	0x3d8a694f	0.06758367
89	0x3f089a1a	0.5336014
90	0x3dd260d4	0.10272375
91	0x3d365ed3	0.044524025
92	0x3d8a0cec	0.06740746
93	0xbd4bb4b7	-0.04973289
94	0x3d1d34e4	0.03838052
95	0x3d8176f9	0.0632152
96	0x3d5da3ee	0.054111414
97	0x3c5d659b	0.013512994
98	0x3d7f4992	0.06232602
99	0xbd663f48	-0.056212693
100	0x3e9fd3c9	0.31216267
101	0xbd0f3adc	-0.034968242
102	0x3ca7f8a0	0.020504296
103	0xbc324aef	-0.010882123
104	0x3c5f70cd	0.013637734
105	0xbdb053a3	-0.086097024
106	0xbd90f0d7	-0.070771866
107	0x3dded238	0.1087994
108	0xbc7e3820	-0.015516311
109	0x3e00ff3c	0.12597364
110	0x3e98bb8d	0.2983059
111	0x3b3d422b	0.002887855
112	0xbd7d91bc	-0.06190656
113	0xbd909229	-0.07059128
114	0x3d313c6a	0.043270506
115	0x3d42af4f	0.04753047
116	0x3d45bcc7	0.048275735
117	0x3d884fbb	0.066558324
118	0x3e275893	0.16342382
119	0x3db8ebe1	0.09029365
120	0xbbf8d753	-0.007594028
121	0x3d101d99	0.035184477
122	0x3c92e620	0.017931998
123	0x3d5ff2c1	0.054674868
124	0x3c40dbfd	0.011771199
125	0xbd25d05c	-0.04048191
126	0x3dc75eb8	0.09734863
127	0x3cc4963b	0.023997417
128	0x3cd13a15	0.025540391
129	0xbab4ac05	-0.0013784176
130	0xbd8b9dd1	-0.068172105
131	0xbda57130	-0.080782294
132	0xbd21a034	-0.039459422
133	0xbb690a82	-0.0035559242
134	0x3c1fa920	0.009744912
135	0xbd9f7699	-0.077862926
136	0xbd852403	-0.06501009
137	0xb9deef3d	-0.00042521386
138	0x3d581f32	0.052764125
139	0x3daec32f	0.08533322
140	0xbe25459b	-0.16139834
141	0x3d8166d7	0.06318443
142	0xbcefc929	-0.029270725
143	0xbd0086ed	-0.031378675
144	0xbe156ef2	-0.14593104
145	0x3db46c08	0.08809668
146	0x3cc733eb	0.024316749
147	0xbdbdad42	-0.09261562
148	0x3d48e0a7	0.04904237
149	0x3d9cac9e	0.076501116
150	0x3a15a211	0.00057080487
151	0xbd37ecb8	-0.044903487
152	0xbb32314e	-0.0027190032
153	0x3d8250ea	0.063630894
154	0x3d219908	0.039452583
155	0x3dc4ba0d	0.09605799
156	0x3c4b0ba3	0.012392911
157	0xbc59ea53	-0.013300496
158	0x3b023b05	0.0019871604
159	0xbd9b1a99	-0.075734325
160	0x3db17633	0.08665123
161	0xbc741a2a	-0.014898816
162	0xbd6b9464	-0.057514563
163	0xbd978141	-0.073977
164	0x3d6f7f5a	0.05847106
165	0xbd9bc5ff	-0.07606124
166	0x3de05487	0.10953622
167	0xbd39128d	-0.045183707
168	0xbda18b33	-0.07887878
169	0xbd97b234	-0.074070364
170	0xba12007b	-0.00055695296
171	0x3ccf156a	0.025278766
172	0x3d24d315	0.040240366
173	0xbdfcef44	-0.12350324
174	0xbdb4b583	-0.08823683
175	0xbcad0a8f	-0.021123199
176	0xbc1516c7	-0.009099669
177	0xbca6d286	-0.020364057
178	0x3d745bca	0.05965785
179	0x3c5316d8	0.012883864
180	0x3dac407f	0.08410739
181	0xbd287fdd	-0.041137565
182	0x3d936fd2	0.071990624
183	0x3d5cf5ac	0.05394523
184	0x3dcfc1c9	0.101443835
185	0xbd0ae160	-0.03390634
186	0xbc24390e	-0.0100233685
187	0x3de9ef78	0.11422628
188	0xbd54c84c	-0.05194883
189	0xbda67a39	-0.08128781
190	0xbd928c1d	-0.07155631
191	0xbb54b06c	-0.0032453788
192	0x3dc6290d	0.096757986
193	0xbe1857ad	-0.14877196
194	0xbd974e46	-0.07387976
195	0xbcd38f04	-0.025825031
196	0x3b99f3cf	0.0046982537
197	0x3c9f8060	0.019470394
198	0x3c649685	0.013951902
199	0x3db4a803	0.08821108
200	0xbd135fa3	-0.03597988
201	0xbcdfc3e0	-0.02731508
202	0x3dd969ef	0.10615908
203	0x3d5adc00	0.053432465
204	0xbcae9fb5	-0.021316389
205	0xbce145e5	-0.027499149
206	0x3c1931df	0.009350269
207	0xbdd037e3	-0.101669095
208	0x3d4390d1	0.04774553
209	0x3cbd0345	0.023072848
210	0x3bc67cc9	0.006057356
211	0x3aa9bd77	0.0012950142
212	0x3d7fcfa1	0.06245387
213	0x3d3ed1d8	0.04658684
214	0xbce068f7	-0.027393801
215	0xbca824b7	-0.02052532
216	0xbd39e371	-0.04538292
217	0xbe452555	-0.19252522
218	0x3c8577cf	0.01629248
219	0x3bc7e2d1	0.0061000367
220	0x3d9ec899	0.07753105
221	0xbd19d5e3	-0.037557494
222	0x3d134cc2	0.035961874
223	0xbd063a8b	-0.032770675
224	0xbdd6adfe	-0.10482405
225	0xbd502d52	-0.05082447
226	0xbce17550	-0.02752176
227	0x3ca133d7	0.01967804
228	0xbd665822	-0.056236394
229	0x3cc6a0cd	0.024246598
230	0xbd6cbd21	-0.057797555
231	0x3c24a39d	0.010048774
232	0xbcdf1ba7	-0.027234865
233	0x3d2036e7	0.03911486
234	0x3d688f9e	0.05677759
235	0x3ccac19f	0.024750529
236	0xbdade6ff	-0.08491325
237	0xbd0dcd1f	-0.034619447
238	0xbc83b8d5	-0.016079346
239	0xbd304aaf	-0.043039974
240	0x3b70baa3	0.0036732338
241	0xbd85b3e6	-0.065284535
242	0x3d4c6592	0.049901552
243	0xbd8a92a5	-0.067662515
244	0x3d3b768f	0.045767363
245	0xbd3371f7	-0.043809857
246	0x3db1be7a	0.08678909
247	0x3db50624	0.08839062
248	0xbd179388	-0.03700593
249	0xbbad2159	-0.0052835164
250	0x3c6be406	0.014397627
251	0xbc8bcd90	-0.017065793
252	0x3db0df4b	0.0863634
253	0x3c812147	0.015762938
254	0x3b294721	0.002582975
255	0xbcda4e72	-0.026648734

rnn.weight_ih_l1 f4 [512, 128]
0	0x3e984a0c	0.29743993
1	0xbbcadb10	-0.006190665
2	0xbdd22f20	-0.10262895
3	0xbd75cd6d	-0.060010362
4	0x3c4010bd	0.011722741
5	0xbdbffcd5	-0.09374396
6	0xbc0b9dab	-0.008521478
7	0x3d2ab121	0.04167283
8	0x3d62dc57	0.055385914
9	0xbc9a9eb2	-0.0188745
10	0xbc8e2972	-0.017353747
11	0x3c5690bd	0.013096032
12	0xbe0eacb2	-0.13933066
13	0xbdbc266b	-0.09187015
14	0x3df15c23	0.11785152
15	0x3e033202	0.12812045
16	0xbe8305c8	-0.25590348
17	0xbd3c8779	-0.046027634
18	0x3d4711f4	0.048601106
19	0xbdf7d346	-0.12100844
20	0xbdc421b6	-0.09576742
21	0xbdb3338e	-0.08750068
22	0xbbe906c9	-0.0071114046
23	0xbdecd896	-0.11564748
24	0x3d709894	0.05873926
25	0x3d29c536	0.04144784
26	0xbc923cbc	-0.017851226
27	0xbd111c83	-0.03542758
28	0xbc24638d	-0.0100335
29	0x3b78ad17	0.0037944966
30	0x3c91d1b6	0.017800193
31	0xbcf5dc1c	-0.030012183
32	0xbde134c2	-0.10996391
33	0xbce61051	-0.028083952
34	0x3d9f2718	0.077711284
35	0x3cd14d49	0.025549548
36	0xbd9dde06	-0.07708363
37	0xbdb84b2a	-0.089987114
38	0x3e4bc273	0.19898395
39	0xbcf224a8	-0.029558495
40	0x3d9b839b	0.07593461
41	0x3d9be5a4	0.0761216
42	0x3ca121d3	0.019669449
43	0xbcab15ea	-0.020884473
44	0xbd54e1d9	-0.051973198
45	0xbc899528	-0.016794756
46	0xbd442079	-0.04788253
47	0x3bda596c	0.006663492
48	0xbbde0887	-0.006775919
49	0xbd134fb2	-0.035964675
50	0x3d62475e	0.055243842
51	0xbd377eb1	-0.044798557
52	0xbdd37347	-0.10324722
53	0xbcd0f267	-0.025506211
54	0x3d38d33f	0.045123335
55	0xbcbd570f	-0.023112802
56	0xbcb7b238	-0.022423849
57	0x39a569c5	0.00031550057
58	0xbd021ab3	-0.031763744
59	0x3d883763	0.06651189
60	0xbd923060	-0.07138133
61	0x3d760034	0.060058787
62	0xbe666377	-0.2249888
63	0xbc84c11d	-0.016205365
64	0xbe018e40	-0.1265192
65	0xbe1aa65f	-0.15102528
66	0xbda05a19	-0.07829685
67	0xbd90eb75	-0.0707616
68	0x3dcd01c5	0.10010103
69	0x3d4953ef	0.04915231
70	0xbe086c8b	-0.13322656
71	0x3d66edd2	0.056379147
72	0xbce7abff	-0.028280256
73	0xbce39bc0	-0.027784228
74	0xb9de7627	-0.0004243117
75	0xbd574588	-0.052556545
76	0x3d94ab8b	0.07259282
77	0x3e2fdbf4	0.17173749
78	0xbd242565	-0.040074725
79	0x3ddb7aa6	0.10716753
80	0xbda89a5f	-0.08232569
81	0x3d3df1de	0.04637324
82	0xbbc197e5	-0.005908
83	0xbd0a675e	-0.033789985
84	0xbdc90708	-0.09815794
85	0xbcc1ad63	-0.023642248
86	0xbdef23fd	-0.11676786
87	0xbca1d5d7	-0.019755287
88	0xbdb6e813	-0.089309834
89	0x3e1b7501	0.15181352
90	0xbdea6e5a	-0.11446829
91	0xbc5b4e3e	-0.013385354
92	0xbd176667	-0.036962893
93	0x3d7f8d5a	0.062390663
94	0xbc6a5567	-0.014302588
95	0x3d5addb9	0.053434107
96	0x3d393c8e	0.045223765
97	0x3c8be737	0.017078025
98	0x3d849328	0.0647338
99	0x3cd2c1e7	0.025727225
100	0x3e0a2a53	0.13492708
101	0x3bab1003	0.0052204146
102	0xbdc267dc	-0.09492466
103	0x3d7954ff	0.060872074
104	0x3da0f51e	0.078592524
105	0x3b1e125a	0.0024119825
106	0x3dbbdff4	0.09173575
107	0x3e2ca0a8	0.1685816
108	0xbe0de660	-0.13857412
109	0xbd4f134b	-0.05055551
110	0xbcb5dd41	-0.022200229
111	0xbccfd87d	-0.025371784
112	0x3cb7d991	0.022442611
113	0xbcedea8e	-0.029042508
114	0x3d9ebc38	0.07750744
115	0xbbaa6ef3	-0.0052012145
116	0xbda67143	-0.08127072
117	0x3d3a79ff	0.0455265
118	0x3d822977	0.06355565
119	0x3d7529f6	0.05985447
120	0x3d0600d2	0.032715626
121	0xbd5f2470	-0.05447811
122	0x3cf66751	0.030078562
123	0xbd7f19fb	-0.062280636
124	0xbd1ad316	-0.037798963
125	0xbdc399b9	-0.09550805
126	0xbcf0d72d	-0.029399479
127	0x3c9c97e5	0.019115398
128	0xbd85e106	-0.065370604
129	0x3e71eb2b	0.23624866
130	0x3e11ea7e	0.14249608
131	0xbb22779c	-0.002479053
132	0xbd99432e	-0.07483517
133	0x3e5c26e0	0.21499205
134	0xbdd7b059	-0.105316825
135	0xbdb8c213	-0.09021392
136	0xbd90ee53	-0.07076707
137	0xbdaf7979	-0.08568091
138	0xbdb0c49e	-0.08631252
139	0xbd27d17b	-0.04097126
140	0xbd21f5b6	-0.03954097
141	0xbe1da412	-0.15394619
142	0x3d4545c2	0.04816223
143	0x3e1b4c81	0.15165903
144	0x3d9d1146	0.0766931
145	0xbe3fd146	-0.18732175
146	0x3d3c833d	0.046023596
147	0x3e0c360e	0.13692495
148	0x3dbd8a59	0.09254903
149	0xbdec6bc7	-0.115439944
150	0xbdb1eca3	-0.08687713
151	0x3d343ce3	0.04400338
152	0xbd1d31e1	-0.038377646
153	0x3c3400e7	0.010986543
154	0x3b51d4f5	0.0032017801
155	0xbd8b3ca4	-0.06798676
156	0x3e0b107d	0.13580509
157	0xbde7aa57	-0.113117866
158	0xbca4b6e3	-0.020106738
159	0xbe72c439	-0.23707666
160	0xbd85f2dd	-0.06540463
161	0x3cf20bf0	0.029546708
162	0x3e2db370	0.16962981
163	0xbe1d27a0	-0.15347147
164	0x3d6fab69	0.05851308
165	0x3e467d58	0.19383752
166	0xbdbbcbd6	-0.09169738
167	0x3e586c36	0.21135029
168	0x3e3fb8e6	0.18722877
169	0xbc9cabf5	-0.019124964
170	0xbdab448a	-0.08362682
171	0xbe1ef04f	-0.15521358
172	0x3db34084	0.0875254
173	0x3dc4b2ec	0.09604439
174	0xbc7cd362	-0.015431257
175	0x3d51673e	0.05112385
176	0xbbcfbac4	-0.006339403
177	0x3db73aec	0.08946785
178	0xbdb88dd6	-0.09011428
179	0x3d13ebc6	0.036113523
180	0xbd34282a	-0.043983616
181	0x3d8c202c	0.06842074
182	0xbe0b5097	-0.13604961
183	0x3d1e37da	0.038627483
184	0x3cbbd612	0.022929225
185	0xbc4ff514	-0.0126927085
186	0x3dd4ad8f	0.10384666
187	0x3b9048ed	0.0044032247
188	0x3c76927a	0.015049571
189	0x3cc25f02	0.023726944
190	0x3dca6753	0.09882989
191	0x3d41db0f	0.04732805
192	0xbe106ef8	-0.14104831
193	0x3e130de0	0.14360762
194	0x3d3fa882	0.04679156
195	0xbe13090d	-0.14358921
196	0xbd8486e0	-0.06471038
197	0xbdd826b8	-0.1055426
198	0x3c5dfd7a	0.013549203
199	0x3d89625d	0.067082144
200	0xbd6dde7f	-0.058073517
201	0x3dccb4ea	0.09995444
202	0xbdd764e7	-0.105172925
203	0x3dba2355	0.0908877
204	0x3d878342	0.06616832
205	0xbe351938	-0.17685401
206	0x3dc2ca40	0.095112324
207	0xbdc4b32b	-0.09604486
208	0xbdaefd84	-0.08544448
209	0x3d7b961a	0.061422445
210	0xbd3c4657	-0.04596552
211	0xbd9b2c8b	-0.07576855
212	0xbdefa82c	-0.11701998
213	0x3e2e2242	0.17005256
214	0x3e159cb4	0.14610559
215	0x3e447e0e	0.19188711
216	0x3cc888bb	0.02447926
217	0x3cd41364	0.025888152
218	0xbdb8937c	-0.090125054
219	0x3de69d83	0.11260512
220	0xbdd9ad2e	-0.106287345
221	0xbd4fea72	-0.050760694
222	0xbd1ca521	-0.038243417
223	0xbd582eee	-0.05277913
224	0x3d38a953	0.045083355
225	0xbccd421e	-0.025055941
226	0x3d950707	0.07276731
227	0xba918f45	-0.001110532
228	0xbc225469	-0.00990782
229	0xbcfc5e3f	-0.030806659
230	0xbc913b04	-0.017728336
231	0xbda27c24	-0.07933834
232	0x3c856644	0.016284116
233	0x3e1fa9df	0.15592144
234	0x3e168e70	0.14702773
235	0xbe669afa	-0.22520056
236	0xbb16113e	-0.002289846
237	0x3d892977	0.06697362
238	0xbe046d51	-0.12932326
239	0xbda9ecf1	-0.08297146
240	0x3d7d6480	0.061863422
241	0x3d8b3e90	0.06799042
242	0x3cfec066	0.031097602
243	0xbd883f05	-0.06652645
244	0xbdeef397	-0.11667555
245	0x3dd07c45	0.101799525
246	0x3c212beb	0.009837131
247	0x3d12c572	0.03583283
248	0xbd206bf7	-0.039165463
249	0xbd0056b2	-0.03133268
250	0x3da95bd5	0.08269469
251	0x3d743731	0.059622947
252	0x3d98e05f	0.074646704
253	0x3dcae6ac	0.099072784
254	0x3d9dfa4a	0.077137545
255	0xbc4d2ef8	-0.012523405

rnn.weight_hh_l1 f4 [512, 128]
0	0xbd1f6248	-0.038912088
1	0xbb8235dc	-0.0039737057
2	0xbd5efee2	-0.054442294
3	0x3a8d4350	0.0010777507
4	0xbd1be592	-0.038060732
5	0x3d5cf559	0.05394492
6	0xbd04513e	-0.03230404
7	0xbce65b71	-0.028119775
8	0xbc3a0db7	-0.011355809
9	0x3df0ba19	0.11754245
10	0x3da0dcd9	0.07854623
11	0xbdb4de69	-0.08831484
12	0x3c1e97a4	0.009679709
13	0x3d8f2e2e	0.0699123
14	0xbd7a4d1b	-0.06110869
15	0xbd599df3	-0.053129148
16	0x3da1a8ac	0.078935
17	0x3d743255	0.059618313
18	0x3d6d554f	0.057942685
19	0x3d298dad	0.04139488
20	0x3cf7b9f0	0.03024003
21	0xbd298024	-0.04138197
22	0x3c458cfb	0.012057538
23	0x3dc22d8a	0.09481342
24	0xbbb27821	-0.0054464494
25	0xbc62a8f9	-0.0138342315
26	0xbdcb6d1a	-0.09932919
27	0xbc5ea0f7	-0.013588182
28	0xbbe417b3	-0.006960833
29	0xbdd764af	-0.10517251
30	0xbcd7086d	-0.026249135
31	0xbd7d2071	-0.061798517
32	0x3da22983	0.07918074
33	0xbce3031d	-0.027711445
34	0xbd9cad16	-0.07650201
35	0x3de62003	0.112365745
36	0xbd62a4c9	-0.055332933
37	0x3d1f8390	0.038943827
38	0x3d5b593a	0.05355189
39	0xbb6ca24b	-0.0036107476
40	0x3c2ca5ca	0.010537574
41	0xbcb81211	-0.022469552
42	0xbda394a3	-0.079873346
43	0x3db7913f	0.0896325
44	0x3d6bab78	0.057536572
45	0xbc884f1c	-0.016639285
46	0x3d09dbf1	0.033657018
47	0xbd9ff1b1	-0.07809771
48	0x3d0fe5cb	0.035131257
49	0x3cbef272	0.023308966
50	0x3c8e66d9	0.017383026
51	0x3c1ac692	0.009446757
52	0x3c19b8c6	0.009382432
53	0xbcb8c956	-0.022556942
54	0x3d58cbbb	0.052928668
55	0xbc8608b2	-0.016361568
56	0x3c30f763	0.010801169
57	0xbbf7b818	-0.0075597875
58	0x3d875992	0.06608881
59	0xbdc1d115	-0.09463707
60	0x3dc95ac0	0.09831762
61	0xbda6fc28	-0.08153564
62	0x3c173e54	0.009231169
63	0x3d32b4e4	0.043629542
64	0x3ccd3745	0.025050769
65	0xbb9478c3	-0.0045309975
66	0x3de4919d	0.11160586
67	0xbd9f7fc9	-0.07788045
68	0xbd1fed1d	-0.03904449
69	0x3ca7891f	0.020451127
70	0xbd4fe074	-0.050751165
71	0xbd097461	-0.033558253
72	0x3ccf4b05	0.025304327
73	0xbcda8d32	-0.026678655
74	0xbd1038b2	-0.03521032
75	0xbcdc53b8	-0.026895389
76	0x3dc8a0df	0.09796309
77	0x3dbd2f83	0.09237578
78	0x3d9050e9	0.070466824
79	0xbd5a2162	-0.053254493
80	0x3c4c1e52	0.012458401
81	0x3d0ab7ef	0.03386682
82	0x3dbdc5b5	0.09266225
83	0xbd490a8a	-0.049082316
84	0x3d906a27	0.07051497
85	0xbb38dad8	-0.0028206613
86	0x3d9b559c	0.07584688
87	0xbcd18b6f	-0.025579182
88	0xbdd378e9	-0.10325796
89	0xbcde6d41	-0.027151706
90	0x3d6a7c4b	0.05724744
91	0xbc0693ab	-0.008213918
92	0x3dc3e6a9	0.09565479
93	0xbd9b36ec	-0.07578835
94	0x3d4c7d50	0.049924195
95	0x3cb5bebb	0.022185674
96	0xbda369df	-0.07979178
97	0xbd8cd2e8	-0.06876165
98	0xbdb138c1	-0.08653403
99	0x3d8542e0	0.06506896
100	0x3d4cc163	0.049989115
101	0xbc7c3fdd	-0.015396086
102	0x3ad7e315	0.0016470874
103	0x3cf6aae8	0.030110791
104	0x3d037936	0.032098018
105	0xbcdd8a4e	-0.027043488
106	0xbe438882	-0.19095042
107	0x3b8669da	0.004101974
108	0x3d4febdd	0.050762046
109	0x3a825c15	0.0009945655
110	0x3bf842b7	0.0075763124
111	0xbbe94ebb	-0.007119981
112	0x3da58275	0.08081523
113	0x3d88cd89	0.06679828
114	0x3dc0ba36	0.09410517
115	0xbd84ceb8	-0.06484741
116	0x3d406a22	0.046976216
117	0x3db61c49	0.08892114
118	0x3d5e0189	0.054200683
119	0xbd874314	-0.06604591
120	0xbc1f872d	-0.009736818
121	0xbd3d2f6a	-0.046187796
122	0x3de862f6	0.11347
123	0x3cd96334	0.026536562
124	0x3d24f9e3	0.040277373
125	0x3c8fafe9	0.017539935
126	0xbd508c3e	-0.050914995
127	0xbd8b25c3	-0.06794312
128	0x3e1aceb9	0.15117921
129	0xbb51397d	-0.0031925135
130	0x3e1dac17	0.15397678
131	0xbd62c26e	-0.055361204
132	0xbacfc24d	-0.0015850753
133	0xbd9e0de1	-0.07717491
134	0xbd70d7fb	-0.058799725
135	0x3e18e639	0.14931573
136	0x3df80074	0.121094614
137	0x3e271130	0.1631515
138	0x3dadf8ca	0.084947184
139	0x3ca32211	0.019913705
140	0xbcf15964	-0.02946157
141	0xbd722558	-0.059117645
142	0x3dc32744	0.09528974
143	0xbd325e46	-0.043546937
144	0xbc16f56e	-0.009213788
145	0xbd0c2f40	-0.03422475
146	0xbd892b5c	-0.06697723
147	0xbd8c4883	-0.06849768
148	0xbc575b26	-0.01314429
149	0xbe1d3961	-0.1535392
150	0xbd63455e	-0.055486076
151	0xbdbbd958	-0.091723144
152	0xbdba829d	-0.09106944
153	0xbd2c174c	-0.042014405
154	0xbcb1c5cd	-0.021700764
155	0xbd65765c	-0.05602108
156	0x3db84993	0.08998408
157	0xbd7b9e9d	-0.061430562
158	0x3e04751c	0.12935299
159	0xbca965bd	-0.020678395
160	0xbd582a63	-0.052774798
161	0x3c9a1487	0.018808616
162	0xbd2133a4	-0.03935589
163	0xbca9955c	-0.020701103
164	0x3d805a79	0.06267256
165	0x3d879823	0.06620815
166	0xbd4b152d	-0.04958074
167	0xbde9135a	-0.11380644
168	0x3c89f21d	0.016839081
169	0xbd15f1fe	-0.036607735
170	0xbcc93d99	-0.024565505
171	0xbde4e7b1	-0.11177004
172	0x3e4fbe1a	0.20287362
173	0x3e0c52e5	0.13703497
174	0x3d358bff	0.044322964
175	0x3bbd53bc	0.005777804
176	0x3c3c32b8	0.011486702
177	0x3cc78319	0.024354504
178	0x3ca9c1f9	0.020722376
179	0xbe126c52	-0.14299133
180	0xbd4ec04d	-0.05047636
181	0x3d381cca	0.04494933
182	0xbdb42a15	-0.08797089
183	0xbe0e76f7	-0.13912569
184	0x3cc45aa5	0.023969004
185	0xbca7df1e	-0.020492133
186	0x3c9b966d	0.018992627
187	0x3cd90aaf	0.026494352
188	0xbcac7630	-0.02105245
189	0xbd1e031d	-0.038577188
190	0xbea2ebde	-0.31820577
191	0xbd8535f0	-0.065044284
192	0x3cee4dc6	0.02908982
193	0xbdb5e3a0	-0.08881307
194	0xbd2a6c4a	-0.04160718
195	0xbcc1f56f	-0.023676602
196	0xbd8a8e46	-0.06765418
197	0x3e24aeea	0.1608235
198	0xbcf16448	-0.029466763
199	0xbd5abc47	-0.05340221
200	0x3c94ce41	0.018164756
201	0x3d0eaf01	0.034834865
202	0x3d900c15	0.070335545
203	0xbcd41cbb	-0.025892606
204	0xbd3350cd	-0.04377823
205	0x3dd7d5da	0.10538836
206	0xbb8e2e7b	-0.004339037
207	0x3dae63c1	0.0851512
208	0x3d113f24	0.035460606
209	0xbcad007f	-0.0211184
210	0x3b9f3fd8	0.0048599057
211	0x3d0e142c	0.034687206
212	0xbe0e3cba	-0.13890353
213	0x3bfccd37	0.007714893
214	0x3d5a4699	0.053289983
215	0x3d10d75e	0.03536164
216	0x3c19e82b	0.009393732
217	0x3d5a6ed3	0.053328346
218	0xbd87ca1a	-0.06630345
219	0x3d79f070	0.061020315
220	0x3d8cc0fe	0.06872748
221	0xbcdb0870	-0.026737422
222	0x3e242b8f	0.16032241
223	0x3c3b083a	0.011415536
224	0x3c40fc2d	0.011778873
225	0x3db02a5d	0.0860183
226	0x3d64a358	0.05581984
227	0xbd7380c3	-0.05944897
228	0x3dfeae64	0.12435606
229	0xbd8cc8f8	-0.06874269
230	0x3bbf376c	0.005835464
231	0x3b85f103	0.0040875687
232	0xbce7c3c2	-0.028291587
233	0xbd12d1c0	-0.035844564
234	0xbd382888	-0.04496053
235	0xbcda9eae	-0.026686992
236	0xbd71ae85	-0.059004325
237	0x3ca61177	0.020272
238	0x3d7e5818	0.06209573
239	0x3be10035	0.0068664798
240	0x3db89957	0.09013622
241	0xbd55a576	-0.05215975
242	0x3d9d4526	0.07679205
243	0xbd2196ac	-0.039450333
244	0xbcc9deb7	-0.024642332
245	0xbdb3cb02	-0.08778955
246	0x3ca71ea9	0.020400362
247	0x3cb99270	0.022652835
248	0xbd986570	-0.07441223
249	0x3d5b69de	0.05356776
250	0xbe44068a	-0.1914312
251	0x3d73e983	0.059548866
252	0x3b7bde12	0.0038431925
253	0xbd802700	-0.06257439
254	0x3e3afd54	0.182607
255	0x3e04c40a	0.12965408

rnn.bias_ih_l1 f4 [512]
0	0xbc12e49e	-0.008965639
1	0xbda8c6c6	-0.08241038
2	0x3e8a98b6	0.27069634
3	0x3e3d01cf	0.18457721
4	0xbd621508	-0.05519584
5	0x3d53ae3a	0.051679827
6	0xbd3730f5	-0.044724423
7	0x3e400e49	0.1875545
8	0x3d88eb6c	0.06685528
9	0xbc9a7901	-0.018856527
10	0xbd04b6e6	-0.032400988
11	0x3c798766	0.015230035
12	0x3e9fefb7	0.31237575
13	0xbd6d57d3	-0.057945084
14	0x3b05af8b	0.0020398821
15	0x3dd2bb35	0.10289613
16	0x3d3673f8	0.04454419
17	0x3bcf21df	0.0063211764
18	0xbca85d1e	-0.020552214
19	0xbd7011c0	-0.058610678
20	0x3bb0986b	0.0053892634
21	0x3d0e27b9	0.03470585
22	0x3d83284f	0.06404173
23	0x3d308deb	0.043104094
24	0xbcdc029e	-0.026856717
25	0x3da9d965	0.08293418
26	0x3dab2056	0.08355777
27	0x3e737989	0.2377683
28	0xbcc605a3	-0.02417261
29	0x3dd26450	0.10273039
30	0x3e084710	0.13308358
31	0x3deee870	0.11665428
32	0xbd790106	-0.06079199
33	0x3bded4a6	0.006800252
34	0x3ddb2c0b	0.1070176
35	0xbae7bbb8	-0.0017679846
36	0x3ec2c2ec	0.3803934
37	0x3f48f12a	0.7849299
38	0x3d07baa2	0.03313697
39	0x3d796048	0.060882837
40	0x3c3eeb0e	0.011652721
41	0x3d6df241	0.05809236
42	0x3d171f82	0.036895283
43	0x3cc7e771	0.024402352
44	0xbcf56d6c	-0.029959403
45	0xbdb8898c	-0.0901061
46	0x3cbbea92	0.022939
47	0x3d8d9c47	0.06914573
48	0x3e926be1	0.2859793
49	0xbd04e1f6	-0.032442056
50	0x3de13326	0.10996084
51	0x3dc14cde	0.094384894
52	0x3e0fded6	0.14049849
53	0xbd45a720	-0.048255086
54	0x3d16614f	0.036713894
55	0x3d0480c3	0.03234936
56	0x3d788e06	0.06068232
57	0x3deee451	0.11664642
58	0xbb461f2c	-0.0030230982
59	0x3d230acd	0.039805222
60	0x3e0be2fb	0.13660805
61	0x3e0aee4f	0.1356747
62	0x3d9bcc6b	0.07607349
63	0x3dbffa6b	0.09373935
64	0x3c772bbd	0.015086112
65	0x3df0792f	0.11741864
66	0x3db59c60	0.08867717
67	0x3d911d9a	0.07085724
68	0x3dbc33f5	0.091895975
69	0xbd40bcbc	-0.04705499
70	0x3ecf661f	0.405076
71	0x3d443572	0.047902532
72	0x3d8dcaf0	0.06923473
73	0xbd0243be	-0.031802885
74	0x3ddfc5fb	0.10926434
75	0x3df66a2c	0.120319694
76	0x3c3bcd2e	0.011462493
77	0x3cbc1fba	0.022964347
78	0x3d736941	0.05942655
79	0x3db86e8d	0.09005461
80	0x3dd280a6	0.10278444
81	0xbce508bb	-0.027958265
82	0x3d4f20a1	0.050568227
83	0xbd361826	-0.044456623
84	0xbd0ecd04	-0.034863487
85	0x3e0102ea	0.12598768
86	0x3c518c03	0.012789729
87	0x3d3c6881	0.0459981
88	0x3c8ba450	0.017046124
89	0x3d72d010	0.059280455
90	0xbcb2554c	-0.021769188
91	0x3d1d807b	0.038452607
92	0x3dc0f0f1	0.09420956
93	0xbc9b1731	-0.018931957
94	0x3ddd0fe0	0.107940435
95	0x3c82e5c3	0.0159787
96	0x3d0de4ea	0.034642138
97	0x3dbd381b	0.09239217
98	0x3c496710	0.012292638
99	0x3dc6e86d	0.097123004
100	0xbd55ff4e	-0.05224543
101	0xbd36c798	-0.04462394
102	0x3cffe279	0.03123592
103	0x3de224d7	0.11042183
104	0x3dd25759	0.102705665
105	0xbd4671c6	-0.048448347
106	0x3c3c2a57	0.011484704
107	0x3d235e7c	0.03988503
108	0xbce2ede8	-0.027701333
109	0x3e244b83	0.1604443
110	0x3d911c65	0.07085494
111	0x3ddaf008	0.106903136
112	0x3dae14e6	0.0850008
113	0x3cb37f31	0.021911236
114	0xbd889dad	-0.06670699
115	0x3e29e004	0.16589361
116	0xbc2e9f3d	-0.010658083
117	0x3e186fd7	0.14886414
118	0x3cd73f8f	0.026275424
119	0xbd2eb7ae	-0.04265564
120	0x3ee1b872	0.44086033
121	0x3ddcecaf	0.10787331
122	0x3f03ec7b	0.51532716
123	0x3d0699c8	0.0328615
124	0x3d82b5b6	0.06382315
125	0x3da6a6a6	0.081372544
126	0x3e3e50ce	0.18585512
127	0x3e738afc	0.23783487
128	0x3e1928f4	0.14957029
129	0x3d2b5886	0.04183247
130	0xbd065dd6	-0.032804333
131	0x3d246ceb	0.040142935
132	0x3cbe9403	0.023263937
133	0x3c5bddfa	0.013419623
134	0x3d532a67	0.05155411
135	0x3cbc0eb3	0.022956228
136	0x3dad0fde	0.08450292
137	0x3debc67e	0.11512469
138	0x3b1ac53d	0.0023616098
139	0x3be16ace	0.006879187
140	0xbe07d5b1	-0.1326511
141	0x3bb629bc	0.0055591743
142	0x3d353f64	0.044249907
143	0x3abbda35	0.0014331999
144	0x3e00009e	0.12500235
145	0xbd97d24d	-0.074131586
146	0x3d8491ba	0.06473108
147	0xbc8ed152	-0.017433796
148	0x3d7a5ea8	0.061125427
149	0x3d4c63aa	0.049899735
150	0x3da0f3f7	0.078590326
151	0x3ceb5881	0.028728725
152	0x3e0e8889	0.13919272
153	0xbc5a4040	-0.013320982
154	0x3d6af42e	0.057361774
155	0x3de44942	0.11146785
156	0x3e1aecab	0.15129344
157	0x3d759f34	0.05996628
158	0xbd37bb4b	-0.04485635
159	0xbbbf4d27	-0.0058380547
160	0x3d0fe6f8	0.03513238
161	0xbd5d2514	-0.05399044
162	0xbc89874a	-0.016788144
163	0x3db4805f	0.08813547
164	0x3ca11d48	0.019667283
165	0x3e707442	0.23481849
166	0x3dcfecf4	0.10152617
167	0xbd625b9a	-0.05526314
168	0x3d802367	0.062567525
169	0xba17bb95	-0.0005788145
170	0x3df7d170	0.12100494
171	0x3db078a6	0.08616762
172	0x3def9a85	0.11699394
173	0x3db68e2c	0.08913836
174	0x3d2f38ad	0.04277866
175	0xbcd47a0b	-0.0259371
176	0xbba34731	-0.004982852
177	0xbd2b96df	-0.04189193
178	0x3d955692	0.072919026
179	0x3d834f7c	0.06411645
180	0x3d617c58	0.055050224
181	0xbbf54c8b	-0.0074859313
182	0xbb80a1a4	-0.003925519
183	0xbcc39bb6	-0.02387796
184	0x3db2b99c	0.087268084
185	0xbd4ff5e4	-0.05077161
186	0x3e06021f	0.13086747
187	0x3d906220	0.07049966
188	0xbd10fc8a	-0.03539709
189	0x3d8c4697	0.068494014
190	0x3d6591bf	0.056047197
191	0x3d0aa033	0.033844184
192	0x3daa67b7	0.08320563
193	0x3dbae1b4	0.09125081
194	0x3b578d8f	0.0032890772
195	0xbcc6d3aa	-0.024270851
196	0xbb6b2011	-0.0035877267
197	0x3c9ee673	0.019396996
198	0x3d03dbe0	0.03219211
199	0x3d8bc5d0	0.06824839
200	0x3c3e23f7	0.011605254
201	0x3d989505	0.07450298
202	0xbcfb98b4	-0.030712463
203	0x3da83ed6	0.0821511
204	0x3cbb01d3	0.022828018
205	0x3d2e0d52	0.042493172
206	0x3d5ff2cc	0.05467491
207	0x3cad103d	0.021125907
208	0x3c29e2f8	0.010369055
209	0x3dcff11e	0.10153411
210	0x3da7f3dc	0.08200809
211	0x3dcc2d65	0.09969596
212	0x3d366c4e	0.04453688
213	0x3d939090	0.072053075
214	0xbd008e56	-0.031385742
215	0x3cb0bf73	0.021575665
216	0x3b944cb3	0.004525745
217	0x3dd922e7	0.1060236
218	0x3dfb0e01	0.122585304
219	0x3b6fd716	0.0036596707
220	0x3dd2a927	0.102861695
221	0x3d73f410	0.059558928
222	0x3d96e231	0.07367361
223	0x3de2a050	0.110657334
224	0x3dd0e3e6	0.10199718
225	0x3db90ea6	0.09035997
226	0xba3151c6	-0.00067641994
227	0x3d4b1798	0.049583048
228	0xbd690766	-0.05689182
229	0x3e009d54	0.12560016
230	0x3da33002	0.07968141
231	0xbc88a7df	-0.01668161
232	0xbd52abb5	-0.051433284
233	0x3dd4608f	0.103699796
234	0x3c59120d	0.013248933
235	0x3d8b8eb3	0.06814327
236	0x3dab723a	0.08371396
237	0xbcb625fa	-0.022234906
238	0x3e02d9a5	0.12778337
239	0xbd3a5edc	-0.04550062
240	0xbd4d4dc1	-0.05012298
241	0x3d5df4a5	0.05418839
242	0x3e0e948b	0.13923852
243	0xbd44df6b	-0.04806463
244	0xbd59abd6	-0.05314239
245	0x3d6bbd85	0.057553787
246	0x3d109e6d	0.035307337
247	0x3d9e9e1f	0.07745003
248	0x3de1f58f	0.11033165
249	0x3b95bfc8	0.0045699812
250	0xbd276389	-0.04086641
251	0x3ca07b21	0.019589962
252	0x3dc2a7ae	0.095046386
253	0x3c0abad6	0.008467397
254	0xbd0d8d90	-0.034558833
255	0x3e042a1b	0.12906687
